nohup: ignoring input
torch.Size([14031, 5, 64, 32])
torch.Size([4677, 5, 64, 32])
torch.Size([4678, 5, 64, 32])
Shape: (5, 144, 72)
====================================================================================================
Layer (type:depth-idx)                             Output Shape              Param #
====================================================================================================
├─ResNet18Encoder: 1-1                             [-1, 1000]                --
|    └─Sequential: 2-1                             [-1, 64, 72, 36]          --
|    |    └─Conv2d: 3-1                            [-1, 64, 72, 36]          15,680
|    |    └─BatchNorm2d: 3-2                       [-1, 64, 72, 36]          128
|    |    └─ReLU: 3-3                              [-1, 64, 72, 36]          --
|    └─MaxPool2d: 2-2                              [-1, 64, 36, 18]          --
|    └─Sequential: 2-3                             [-1, 64, 36, 18]          --
|    |    └─BasicBlock: 3-4                        [-1, 64, 36, 18]          --
|    |    |    └─Conv2d: 4-1                       [-1, 64, 36, 18]          36,864
|    |    |    └─GroupNorm: 4-2                    [-1, 64, 36, 18]          128
|    |    |    └─ReLU: 4-3                         [-1, 64, 36, 18]          --
|    |    |    └─Conv2d: 4-4                       [-1, 64, 36, 18]          36,864
|    |    |    └─GroupNorm: 4-5                    [-1, 64, 36, 18]          128
|    |    |    └─ReLU: 4-6                         [-1, 64, 36, 18]          --
|    |    └─BasicBlock: 3-5                        [-1, 64, 36, 18]          --
|    |    |    └─Conv2d: 4-7                       [-1, 64, 36, 18]          36,864
|    |    |    └─GroupNorm: 4-8                    [-1, 64, 36, 18]          128
|    |    |    └─ReLU: 4-9                         [-1, 64, 36, 18]          --
|    |    |    └─Conv2d: 4-10                      [-1, 64, 36, 18]          36,864
|    |    |    └─GroupNorm: 4-11                   [-1, 64, 36, 18]          128
|    |    |    └─ReLU: 4-12                        [-1, 64, 36, 18]          --
|    └─Sequential: 2-4                             [-1, 128, 18, 9]          --
|    |    └─BasicBlock: 3-6                        [-1, 128, 18, 9]          --
|    |    |    └─Conv2d: 4-13                      [-1, 128, 18, 9]          73,728
|    |    |    └─GroupNorm: 4-14                   [-1, 128, 18, 9]          256
|    |    |    └─ReLU: 4-15                        [-1, 128, 18, 9]          --
|    |    |    └─Conv2d: 4-16                      [-1, 128, 18, 9]          147,456
|    |    |    └─GroupNorm: 4-17                   [-1, 128, 18, 9]          256
|    |    |    └─Sequential: 4-18                  [-1, 128, 18, 9]          --
|    |    |    |    └─Conv2d: 5-1                  [-1, 128, 18, 9]          8,192
|    |    |    |    └─GroupNorm: 5-2               [-1, 128, 18, 9]          256
|    |    |    └─ReLU: 4-19                        [-1, 128, 18, 9]          --
|    |    └─BasicBlock: 3-7                        [-1, 128, 18, 9]          --
|    |    |    └─Conv2d: 4-20                      [-1, 128, 18, 9]          147,456
|    |    |    └─GroupNorm: 4-21                   [-1, 128, 18, 9]          256
|    |    |    └─ReLU: 4-22                        [-1, 128, 18, 9]          --
|    |    |    └─Conv2d: 4-23                      [-1, 128, 18, 9]          147,456
|    |    |    └─GroupNorm: 4-24                   [-1, 128, 18, 9]          256
|    |    |    └─ReLU: 4-25                        [-1, 128, 18, 9]          --
|    └─Sequential: 2-5                             [-1, 256, 9, 5]           --
|    |    └─BasicBlock: 3-8                        [-1, 256, 9, 5]           --
|    |    |    └─Conv2d: 4-26                      [-1, 256, 9, 5]           294,912
|    |    |    └─GroupNorm: 4-27                   [-1, 256, 9, 5]           512
|    |    |    └─ReLU: 4-28                        [-1, 256, 9, 5]           --
|    |    |    └─Conv2d: 4-29                      [-1, 256, 9, 5]           589,824
|    |    |    └─GroupNorm: 4-30                   [-1, 256, 9, 5]           512
|    |    |    └─Sequential: 4-31                  [-1, 256, 9, 5]           --
|    |    |    |    └─Conv2d: 5-3                  [-1, 256, 9, 5]           32,768
|    |    |    |    └─GroupNorm: 5-4               [-1, 256, 9, 5]           512
|    |    |    └─ReLU: 4-32                        [-1, 256, 9, 5]           --
|    |    └─BasicBlock: 3-9                        [-1, 256, 9, 5]           --
|    |    |    └─Conv2d: 4-33                      [-1, 256, 9, 5]           589,824
|    |    |    └─GroupNorm: 4-34                   [-1, 256, 9, 5]           512
|    |    |    └─ReLU: 4-35                        [-1, 256, 9, 5]           --
|    |    |    └─Conv2d: 4-36                      [-1, 256, 9, 5]           589,824
|    |    |    └─GroupNorm: 4-37                   [-1, 256, 9, 5]           512
|    |    |    └─ReLU: 4-38                        [-1, 256, 9, 5]           --
|    └─Sequential: 2-6                             [-1, 512, 5, 3]           --
|    |    └─BasicBlock: 3-10                       [-1, 512, 5, 3]           --
|    |    |    └─Conv2d: 4-39                      [-1, 512, 5, 3]           1,179,648
|    |    |    └─GroupNorm: 4-40                   [-1, 512, 5, 3]           1,024
|    |    |    └─ReLU: 4-41                        [-1, 512, 5, 3]           --
|    |    |    └─Conv2d: 4-42                      [-1, 512, 5, 3]           2,359,296
|    |    |    └─GroupNorm: 4-43                   [-1, 512, 5, 3]           1,024
|    |    |    └─Sequential: 4-44                  [-1, 512, 5, 3]           --
|    |    |    |    └─Conv2d: 5-5                  [-1, 512, 5, 3]           131,072
|    |    |    |    └─GroupNorm: 5-6               [-1, 512, 5, 3]           1,024
|    |    |    └─ReLU: 4-45                        [-1, 512, 5, 3]           --
|    |    └─BasicBlock: 3-11                       [-1, 512, 5, 3]           --
|    |    |    └─Conv2d: 4-46                      [-1, 512, 5, 3]           2,359,296
|    |    |    └─GroupNorm: 4-47                   [-1, 512, 5, 3]           1,024
|    |    |    └─ReLU: 4-48                        [-1, 512, 5, 3]           --
|    |    |    └─Conv2d: 4-49                      [-1, 512, 5, 3]           2,359,296
|    |    |    └─GroupNorm: 4-50                   [-1, 512, 5, 3]           1,024
|    |    |    └─ReLU: 4-51                        [-1, 512, 5, 3]           --
|    └─AdaptiveAvgPool2d: 2-7                      [-1, 512, 1, 1]           --
|    └─Linear: 2-8                                 [-1, 1000]                513,000
├─Decoder: 1-2                                     [-1, 5, 64, 32]           --
|    └─Sequential: 2-9                             [-1, 15, 64, 32]          --
|    |    └─DecoderBlock: 3-12                     [-1, 250, 4, 2]           --
|    |    |    └─Sequential: 4-52                  [-1, 250, 4, 2]           --
|    |    |    |    └─ConvTranspose2d: 5-7         [-1, 250, 4, 2]           500,250
|    |    |    └─ResidualBlock: 4-53               [-1, 250, 4, 2]           --
|    |    |    |    └─Sequential: 5-8              [-1, 250, 4, 2]           --
|    |    |    |    |    └─Conv2d: 6-1             [-1, 250, 4, 2]           562,750
|    |    |    |    |    └─ReLU: 6-2               [-1, 250, 4, 2]           --
|    |    |    |    |    └─Conv2d: 6-3             [-1, 250, 4, 2]           562,750
|    |    |    |    └─ReLU: 5-9                    [-1, 250, 4, 2]           --
|    |    └─DecoderBlock: 3-13                     [-1, 125, 8, 4]           --
|    |    |    └─Sequential: 4-54                  [-1, 125, 8, 4]           --
|    |    |    |    └─ConvTranspose2d: 5-10        [-1, 125, 8, 4]           125,125
|    |    |    └─ResidualBlock: 4-55               [-1, 125, 8, 4]           --
|    |    |    |    └─Sequential: 5-11             [-1, 125, 8, 4]           --
|    |    |    |    |    └─Conv2d: 6-4             [-1, 125, 8, 4]           140,750
|    |    |    |    |    └─ReLU: 6-5               [-1, 125, 8, 4]           --
|    |    |    |    |    └─Conv2d: 6-6             [-1, 125, 8, 4]           140,750
|    |    |    |    └─ReLU: 5-12                   [-1, 125, 8, 4]           --
|    |    └─DecoderBlock: 3-14                     [-1, 62, 16, 8]           --
|    |    |    └─Sequential: 4-56                  [-1, 62, 16, 8]           --
|    |    |    |    └─ConvTranspose2d: 5-13        [-1, 62, 16, 8]           31,062
|    |    |    └─ResidualBlock: 4-57               [-1, 62, 16, 8]           --
|    |    |    |    └─Sequential: 5-14             [-1, 62, 16, 8]           --
|    |    |    |    |    └─Conv2d: 6-7             [-1, 62, 16, 8]           34,658
|    |    |    |    |    └─ReLU: 6-8               [-1, 62, 16, 8]           --
|    |    |    |    |    └─Conv2d: 6-9             [-1, 62, 16, 8]           34,658
|    |    |    |    └─ReLU: 5-15                   [-1, 62, 16, 8]           --
|    |    └─DecoderBlock: 3-15                     [-1, 31, 32, 16]          --
|    |    |    └─Sequential: 4-58                  [-1, 31, 32, 16]          --
|    |    |    |    └─ConvTranspose2d: 5-16        [-1, 31, 32, 16]          7,719
|    |    |    └─ResidualBlock: 4-59               [-1, 31, 32, 16]          --
|    |    |    |    └─Sequential: 5-17             [-1, 31, 32, 16]          --
|    |    |    |    |    └─Conv2d: 6-10            [-1, 31, 32, 16]          8,680
|    |    |    |    |    └─ReLU: 6-11              [-1, 31, 32, 16]          --
|    |    |    |    |    └─Conv2d: 6-12            [-1, 31, 32, 16]          8,680
|    |    |    |    └─ReLU: 5-18                   [-1, 31, 32, 16]          --
|    |    └─DecoderBlock: 3-16                     [-1, 15, 64, 32]          --
|    |    |    └─Sequential: 4-60                  [-1, 15, 64, 32]          --
|    |    |    |    └─ConvTranspose2d: 5-19        [-1, 15, 64, 32]          1,875
|    |    |    └─ResidualBlock: 4-61               [-1, 15, 64, 32]          --
|    |    |    |    └─Sequential: 5-20             [-1, 15, 64, 32]          --
|    |    |    |    |    └─Conv2d: 6-13            [-1, 15, 64, 32]          2,040
|    |    |    |    |    └─ReLU: 6-14              [-1, 15, 64, 32]          --
|    |    |    |    |    └─Conv2d: 6-15            [-1, 15, 64, 32]          2,040
|    |    |    |    └─ReLU: 5-21                   [-1, 15, 64, 32]          --
|    └─Conv2d: 2-10                                [-1, 5, 64, 32]           80
====================================================================================================
Total params: 13,859,651
Trainable params: 13,859,651
Non-trainable params: 0
Total mult-adds (M): 550.07
====================================================================================================
Input size (MB): 0.20
Forward/backward pass size (MB): 9.58
Params size (MB): 52.87
Estimated Total Size (MB): 62.65
…
