nohup: ignoring input
====================================================================================================
Layer (type:depth-idx)                             Output Shape              Param #
====================================================================================================
├─ResNet: 1-1                                      [-1, 1000]                --
|    └─Conv2d: 2-1                                 [-1, 64, 32, 16]          15,680
|    └─BatchNorm2d: 2-2                            [-1, 64, 32, 16]          128
|    └─ReLU: 2-3                                   [-1, 64, 32, 16]          --
|    └─MaxPool2d: 2-4                              [-1, 64, 16, 8]           --
|    └─Sequential: 2-5                             [-1, 64, 16, 8]           --
|    |    └─BasicBlock: 3-1                        [-1, 64, 16, 8]           --
|    |    |    └─Conv2d: 4-1                       [-1, 64, 16, 8]           36,864
|    |    |    └─BatchNorm2d: 4-2                  [-1, 64, 16, 8]           128
|    |    |    └─ReLU: 4-3                         [-1, 64, 16, 8]           --
|    |    |    └─Conv2d: 4-4                       [-1, 64, 16, 8]           36,864
|    |    |    └─BatchNorm2d: 4-5                  [-1, 64, 16, 8]           128
|    |    |    └─ReLU: 4-6                         [-1, 64, 16, 8]           --
|    |    └─BasicBlock: 3-2                        [-1, 64, 16, 8]           --
|    |    |    └─Conv2d: 4-7                       [-1, 64, 16, 8]           36,864
|    |    |    └─BatchNorm2d: 4-8                  [-1, 64, 16, 8]           128
|    |    |    └─ReLU: 4-9                         [-1, 64, 16, 8]           --
|    |    |    └─Conv2d: 4-10                      [-1, 64, 16, 8]           36,864
|    |    |    └─BatchNorm2d: 4-11                 [-1, 64, 16, 8]           128
|    |    |    └─ReLU: 4-12                        [-1, 64, 16, 8]           --
|    └─Sequential: 2-6                             [-1, 128, 8, 4]           --
|    |    └─BasicBlock: 3-3                        [-1, 128, 8, 4]           --
|    |    |    └─Conv2d: 4-13                      [-1, 128, 8, 4]           73,728
|    |    |    └─BatchNorm2d: 4-14                 [-1, 128, 8, 4]           256
|    |    |    └─ReLU: 4-15                        [-1, 128, 8, 4]           --
|    |    |    └─Conv2d: 4-16                      [-1, 128, 8, 4]           147,456
|    |    |    └─BatchNorm2d: 4-17                 [-1, 128, 8, 4]           256
|    |    |    └─Sequential: 4-18                  [-1, 128, 8, 4]           --
|    |    |    |    └─Conv2d: 5-1                  [-1, 128, 8, 4]           8,192
|    |    |    |    └─BatchNorm2d: 5-2             [-1, 128, 8, 4]           256
|    |    |    └─ReLU: 4-19                        [-1, 128, 8, 4]           --
|    |    └─BasicBlock: 3-4                        [-1, 128, 8, 4]           --
|    |    |    └─Conv2d: 4-20                      [-1, 128, 8, 4]           147,456
|    |    |    └─BatchNorm2d: 4-21                 [-1, 128, 8, 4]           256
|    |    |    └─ReLU: 4-22                        [-1, 128, 8, 4]           --
|    |    |    └─Conv2d: 4-23                      [-1, 128, 8, 4]           147,456
|    |    |    └─BatchNorm2d: 4-24                 [-1, 128, 8, 4]           256
|    |    |    └─ReLU: 4-25                        [-1, 128, 8, 4]           --
|    └─Sequential: 2-7                             [-1, 256, 4, 2]           --
|    |    └─BasicBlock: 3-5                        [-1, 256, 4, 2]           --
|    |    |    └─Conv2d: 4-26                      [-1, 256, 4, 2]           294,912
|    |    |    └─BatchNorm2d: 4-27                 [-1, 256, 4, 2]           512
|    |    |    └─ReLU: 4-28                        [-1, 256, 4, 2]           --
|    |    |    └─Conv2d: 4-29                      [-1, 256, 4, 2]           589,824
|    |    |    └─BatchNorm2d: 4-30                 [-1, 256, 4, 2]           512
|    |    |    └─Sequential: 4-31                  [-1, 256, 4, 2]           --
|    |    |    |    └─Conv2d: 5-3                  [-1, 256, 4, 2]           32,768
|    |    |    |    └─BatchNorm2d: 5-4             [-1, 256, 4, 2]           512
|    |    |    └─ReLU: 4-32                        [-1, 256, 4, 2]           --
|    |    └─BasicBlock: 3-6                        [-1, 256, 4, 2]           --
|    |    |    └─Conv2d: 4-33                      [-1, 256, 4, 2]           589,824
|    |    |    └─BatchNorm2d: 4-34                 [-1, 256, 4, 2]           512
|    |    |    └─ReLU: 4-35                        [-1, 256, 4, 2]           --
|    |    |    └─Conv2d: 4-36                      [-1, 256, 4, 2]           589,824
|    |    |    └─BatchNorm2d: 4-37                 [-1, 256, 4, 2]           512
|    |    |    └─ReLU: 4-38                        [-1, 256, 4, 2]           --
|    └─Sequential: 2-8                             [-1, 512, 2, 1]           --
|    |    └─BasicBlock: 3-7                        [-1, 512, 2, 1]           --
|    |    |    └─Conv2d: 4-39                      [-1, 512, 2, 1]           1,179,648
|    |    |    └─BatchNorm2d: 4-40                 [-1, 512, 2, 1]           1,024
|    |    |    └─ReLU: 4-41                        [-1, 512, 2, 1]           --
|    |    |    └─Conv2d: 4-42                      [-1, 512, 2, 1]           2,359,296
|    |    |    └─BatchNorm2d: 4-43                 [-1, 512, 2, 1]           1,024
|    |    |    └─Sequential: 4-44                  [-1, 512, 2, 1]           --
|    |    |    |    └─Conv2d: 5-5                  [-1, 512, 2, 1]           131,072
|    |    |    |    └─BatchNorm2d: 5-6             [-1, 512, 2, 1]           1,024
|    |    |    └─ReLU: 4-45                        [-1, 512, 2, 1]           --
|    |    └─BasicBlock: 3-8                        [-1, 512, 2, 1]           --
|    |    |    └─Conv2d: 4-46                      [-1, 512, 2, 1]           2,359,296
|    |    |    └─BatchNorm2d: 4-47                 [-1, 512, 2, 1]           1,024
|    |    |    └─ReLU: 4-48                        [-1, 512, 2, 1]           --
|    |    |    └─Conv2d: 4-49                      [-1, 512, 2, 1]           2,359,296
|    |    |    └─BatchNorm2d: 4-50                 [-1, 512, 2, 1]           1,024
|    |    |    └─ReLU: 4-51                        [-1, 512, 2, 1]           --
|    └─AdaptiveAvgPool2d: 2-9                      [-1, 512, 1, 1]           --
|    └─Linear: 2-10                                [-1, 1000]                513,000
├─Decoder: 1-2                                     [-1, 5, 64, 32]           --
|    └─Linear: 2-11                                [-1, 1024]                1,025,024
|    └─Sequential: 2-12                            [-1, 8, 64, 32]           --
|    |    └─DecoderBlock: 3-9                      [-1, 64, 8, 4]            --
|    |    |    └─Sequential: 4-52                  [-1, 64, 8, 4]            --
|    |    |    |    └─ConvTranspose2d: 5-7         [-1, 64, 8, 4]            32,832
|    |    |    |    └─LeakyReLU: 5-8               [-1, 64, 8, 4]            --
|    |    └─DecoderBlock: 3-10                     [-1, 32, 16, 8]           --
|    |    |    └─Sequential: 4-53                  [-1, 32, 16, 8]           --
|    |    |    |    └─ConvTranspose2d: 5-9         [-1, 32, 16, 8]           8,224
|    |    |    |    └─LeakyReLU: 5-10              [-1, 32, 16, 8]           --
|    |    └─DecoderBlock: 3-11                     [-1, 16, 32, 16]          --
|    |    |    └─Sequential: 4-54                  [-1, 16, 32, 16]          --
|    |    |    |    └─ConvTranspose2d: 5-11        [-1, 16, 32, 16]          2,064
|    |    |    |    └─LeakyReLU: 5-12              [-1, 16, 32, 16]          --
|    |    └─DecoderBlock: 3-12                     [-1, 8, 64, 32]           --
|    |    |    └─Sequential: 4-55                  [-1, 8, 64, 32]           --
|    |    |    |    └─ConvTranspose2d: 5-13        [-1, 8, 64, 32]           520
|    |    |    |    └─LeakyReLU: 5-14              [-1, 8, 64, 32]           --
|    └─Conv2d: 2-13                                [-1, 5, 64, 32]           45
====================================================================================================
Total params: 12,764,493
Trainable params: 12,764,493
Non-trainable params: 0
Total mult-adds (M): 118.44
====================================================================================================
Input size (MB): 0.04
Forward/backward pass size (MB): 1.87
Params size (MB): 48.69
Estimated Total Size (MB): 50.61
…
